…
filter of shape $(2, 2)$, applied with a striding ratio $(2, 2)$ (equivalent to
a step size of $(2, 2)$). The final global max-pooling layer of course used a
filter size equal to the shape of the input feature maps, making the striding
ratio irrelevant. The other popular option of using the average function, or a
different combination/location in the network, is alas left for future works.
**** Dense Layer

_________________________________________________________________
Layer (type)                 Output Shape              Param #
=================================================================
c1_3_64_1 (Conv2D)           (None, 19, 62, 64)        640
_________________________________________________________________
c1_bn (BatchNormalization)   (None, 19, 62, 64)        256
_________________________________________________________________
c1_relu (Activation)         (None, 19, 62, 64)        0
_________________________________________________________________
c1_d_10 (Dropout)            (None, 19, 62, 64)        0
_________________________________________________________________
c1_mxp2_2 (MaxPooling2D)     (None, 9, 31, 64)         0
_________________________________________________________________
c2_3_128_1 (Conv2D)          (None, 7, 29, 128)        73856
_________________________________________________________________
c2_bn (BatchNormalization)   (None, 7, 29, 128)        512
_________________________________________________________________
c2_relu (Activation)         (None, 7, 29, 128)        0
_________________________________________________________________
c2_d_10 (Dropout)            (None, 7, 29, 128)        0
_________________________________________________________________
c2_mxp2_2 (MaxPooling2D)     (None, 3, 14, 128)        0
_________________________________________________________________
c3_3_256_1 (Conv2D)          (None, 1, 12, 256)        295168
_________________________________________________________________
c3_bn (BatchNormalization)   (None, 1, 12, 256)        1024
_________________________________________________________________
c3_relu (Activation)         (None, 1, 12, 256)        0
_________________________________________________________________
c3_d_10 (Dropout)            (None, 1, 12, 256)        0
_________________________________________________________________
gmxp (GlobalMaxPooling2D)    (None, 256)               0
_________________________________________________________________
f1_512_relu (Dense)          (None, 512)               131584
_________________________________________________________________
f1_d_10 (Dropout)            (None, 512)               0
_________________________________________________________________
f2_128_relu (Dense)          (None, 128)               65664
_________________________________________________________________
f2_d_10 (Dropout)            (None, 128)               0
_________________________________________________________________
f3_32_relu (Dense)           (None, 32)                4128
_________________________________________________________________
f3_d_10 (Dropout)            (None, 32)                0
_________________________________________________________________
sfmx (Dense)                 (None, 3)                 99
=================================================================
Total params: 572,931
Trainable params: 572,035
Non-trainable params: 896
_________________________________________________________________

*** Training
- adam and backpropagation
- Categorical cross entropy
  - using cost sensitive objective
- No early stopping, no learning rate scheduling
- 20 passes at least, then choose best based on overfitting
…
